…
['apple', 'banana', 'beetroot', 'bell pepper', 'cabbage', 'capsicum', 'carrot', 'cauliflower', 'chilli pepper', 'corn', 'cucumber', 'eggplant', 'garlic', 'ginger', 'grapes', 'jalepeno', 'kiwi', 'lemon', 'lettuce', 'mango', 'onion', 'orange', 'paprika', 'pear', 'peas', 'pineapple', 'pomegranate', 'potato', 'raddish', 'soy beans', 'spinach', 'sweetcorn', 'sweetpotato', 'tomato', 'turnip', 'watermelon']
Model: "sequential"
_________________________________________________________________
Layer (type)                 Output Shape              Param #
=================================================================
rescaling (Rescaling)        (None, 224, 224, 3)       0
_________________________________________________________________
conv2d (Conv2D)              (None, 222, 222, 32)      896
_________________________________________________________________
max_pooling2d (MaxPooling2D) (None, 111, 111, 32)      0
_________________________________________________________________
conv2d_1 (Conv2D)            (None, 109, 109, 64)      18496
_________________________________________________________________
max_pooling2d_1 (MaxPooling2 (None, 54, 54, 64)        0
_________________________________________________________________
flatten (Flatten)            (None, 186624)            0
_________________________________________________________________
dense (Dense)                (None, 128)               23888000
_________________________________________________________________
dense_1 (Dense)              (None, 36)                4644
=================================================================
Total params: 23,912,036
Trainable params: 23,912,036
Non-trainable params: 0
_________________________________________________________________
Epoch 1/30
2023-09-12 11:04:57.468474: W tensorflow/core/lib/png/png_io.cc:88] PNG warning: iCCP: known incorrect sRGB profile
 17/195 [=>............................] - ETA: 1:46 - loss: 3.6920 - accuracy: 0.04042023-09-12 11:05:10.075839: W tensorflow/core/lib/png/png_io.cc:88] PNG warning: iCCP: known incorrect sRGB profile
…
